lightning_logs/version_12/checkpoints/epoch=9-step=10.ckpt (torch, 23690 bytes, 12 tensors)

model.dilated_convolutions.0.weight f4 [1, 1, 2]
0	0x400b4d0f	2.1765783
1	0xbdc30bff	-0.095237724

model.dilated_convolutions.1.weight f4 [1, 1, 2]
0	0xbfd70573	-1.6798538
1	0x3f428a80	0.75992584

model.dilated_convolutions.2.weight f4 [1, 1, 2]
0	0x401522e1	2.3302538
1	0xbff3cb24	-1.9046369

model.dilated_convolutions.3.weight f4 [1, 1, 2]
0	0xbda54181	-0.080691345
1	0x3f066cc0	0.5250969

exp_avg f4 [1, 1, 2]
0	0xbb469f99	-0.003030753
1	0xba532167	-0.00080539886

exp_avg_sq f4 [1, 1, 2]
0	0x34665f31	2.145505e-07
1	0x32842917	1.5385508e-08

exp_avg f4 [1, 1, 2]
0	0xb9881e35	-0.00025962447
1	0xbc17a9d4	-0.009256799

exp_avg_sq f4 [1, 1, 2]
0	0x30da4825	1.5882092e-09
1	0x36065b1e	2.0020593e-06

exp_avg f4 [1, 1, 2]
0	0xbb03d7dd	-0.0020117678
1	0x3a4d3a18	0.0007828786

exp_avg_sq f4 [1, 1, 2]
0	0x33cb0667	9.454089e-08
1	0x32754fbd	1.4279007e-08

exp_avg f4 [1, 1, 2]
0	0x3b49057c	0.0030673435
1	0xbbcbf809	-0.0062246365

exp_avg_sq f4 [1, 1, 2]
0	0x346b8479	2.1934274e-07
1	0x35732c57	9.058908e-07
