lightning_logs/version_14/checkpoints/epoch=1756-step=1757.ckpt (torch, 23690 bytes, 12 tensors)

model.dilated_convolutions.0.weight f4 [1, 1, 2]
-3.3073997e-05 0.5386772
00000000: efb8 0ab8 c0e6 093f

model.dilated_convolutions.1.weight f4 [1, 1, 2]
0.17629975 -0.3482175
00000000: ec87 343e 9049 b2be

model.dilated_convolutions.2.weight f4 [1, 1, 2]
-0.449237 0.14420873
00000000: 6402 e6be 74ab 133e

model.dilated_convolutions.3.weight f4 [1, 1, 2]
1.2448468 0.26926962
00000000: 2457 9f3f b5dd 893e

exp_avg f4 [1, 1, 2]
-3.6296633e-08 0.00054311997
00000000: 92e4 1bb3 2a60 0e3a

exp_avg_sq f4 [1, 1, 2]
1.2255818e-08 1.2440667e-06
00000000: a88d 5232 cef9 a635

exp_avg f4 [1, 1, 2]
0.00017783436 -0.0003522349
00000000: 0c79 3a39 2bac b8b9

exp_avg_sq f4 [1, 1, 2]
1.1166319e-06 6.433905e-07
00000000: 2edf 9535 75b5 2c35

exp_avg f4 [1, 1, 2]
-0.00045267778 0.00014438585
00000000: 6255 edb9 4866 1739

exp_avg_sq f4 [1, 1, 2]
1.4380468e-06 5.449731e-05
00000000: e902 c135 0b94 6438

exp_avg f4 [1, 1, 2]
0.0012451457 0.00026933476
00000000: 2834 a33a 8035 8d39

exp_avg_sq f4 [1, 1, 2]
0.0014177646 0.0013973442
00000000: 49d4 b93a 1727 b73a
