lightning_logs/version_13/checkpoints/epoch=625-step=626.ckpt (torch, 23690 bytes, 12 tensors)

model.dilated_convolutions.0.weight f4 [1, 1, 2]
000000 ae fd 5c 3f 34 e3 7f 3f
       0.86324584 0.9995606

model.dilated_convolutions.1.weight f4 [1, 1, 2]
000000 55 e7 73 3f 15 a7 4c 3d
       0.9527486 0.04996403

model.dilated_convolutions.2.weight f4 [1, 1, 2]
000000 e7 56 1f 3f 5f 0b a3 bf
       0.6224198 -1.2737845

model.dilated_convolutions.3.weight f4 [1, 1, 2]
000000 df dd 82 bd 33 3c 48 3e
       -0.06389975 0.19554214

exp_avg f4 [1, 1, 2]
000000 76 9e 4c 38 e8 ce 70 37
       4.878497e-05 1.4353289e-05

exp_avg_sq f4 [1, 1, 2]
000000 33 95 43 31 a7 4f 63 31
       2.8461045e-09 3.3078125e-09

exp_avg f4 [1, 1, 2]
000000 5f de 2a b8 15 18 8d b6
       -4.0738258e-05 -4.204931e-06

exp_avg_sq f4 [1, 1, 2]
000000 16 9a 3d 31 fb 9b 2d 2d
       2.7590707e-09 9.868546e-12

exp_avg f4 [1, 1, 2]
000000 e1 6a 98 3a dc 8c a2 3a
       0.0011628532 0.0012401599

exp_avg_sq f4 [1, 1, 2]
000000 7d 34 f6 33 08 92 f8 33
       1.1464815e-07 1.1574963e-07

exp_avg f4 [1, 1, 2]
000000 55 a9 87 bc 36 4d 87 bc
       -0.016560236 -0.01651631

exp_avg_sq f4 [1, 1, 2]
000000 1c cb 16 38 5e 13 16 38
       3.5951947e-05 3.5780824e-05
