lightning_logs/version_15/checkpoints/epoch=1443-step=1444.ckpt (torch, 23690 bytes, 12 tensors)

model.dilated_convolutions.0.weight f4 [1, 1, 2]
0	0xbe1399f7	-0.14414202
1	0x3f60d59d	0.8782595

model.dilated_convolutions.1.weight f4 [1, 1, 2]
0	0xbef9a7c0	-0.48760796
1	0x3e1cdb3e	0.1531801

model.dilated_convolutions.2.weight f4 [1, 1, 2]
0	0xbed864f8	-0.42264533
1	0x3eb3e302	0.3513413

model.dilated_convolutions.3.weight f4 [1, 1, 2]
0	0xbdaffe73	-0.08593454
1	0x3f8c0925	1.0940291

exp_avg f4 [1, 1, 2]
0	0xb93cd95f	-0.00018010054
1	0x3a6f219f	0.00091221364

exp_avg_sq f4 [1, 1, 2]
0	0x35738924	9.072412e-07
1	0x368d1a33	4.2051774e-06

exp_avg f4 [1, 1, 2]
0	0xba08f3e6	-0.0005224332
1	0x39af1dc9	0.00033400793

exp_avg_sq f4 [1, 1, 2]
0	0x37a435e5	1.957542e-05
1	0x37e23e97	2.6970445e-05

exp_avg f4 [1, 1, 2]
0	0xba86b2bc	-0.0010276656
1	0xb972fc40	-0.00023172889

exp_avg_sq f4 [1, 1, 2]
0	0x3baf37a0	0.005347207
1	0x3ba3ba38	0.0049965642

exp_avg f4 [1, 1, 2]
0	0x3aa02430	0.0012217816
1	0x3b1e4acc	0.002415347

exp_avg_sq f4 [1, 1, 2]
0	0x3cdfe42e	0.027330484
1	0x3ce3bd97	0.027800364
