lightning_logs/version_8/checkpoints/epoch=9-step=800.ckpt (torch, 19130 bytes, 9 tensors)

model.dilated_convolutions.0.weight f4 [1, 1, 3]
-0.7010977 0.35496476 -1.3842108
00000000: 247b 33bf f1bd b53e d22d b1bf

model.dilated_convolutions.1.weight f4 [1, 1, 3]
0.72405636 0.541693 -0.58677036
00000000: c25b 393f 64ac 0a3f 9536 16bf

model.dilated_convolutions.2.weight f4 [1, 1, 3]
-0.20219716 -0.110141784 -0.14650197
00000000: c60c 4fbe 0492 e1bd 9d04 16be

exp_avg f4 [1, 1, 3]
-7.02053e-05 3.558817e-05 -0.00013851869
00000000: 2f3b 93b8 8244 1538 543f 11b9

exp_avg_sq f4 [1, 1, 3]
2.9766893e-09 8.3063106e-10 1.1085213e-08
00000000: 798e 4c31 7752 6430 4871 3e32

exp_avg f4 [1, 1, 3]
7.2501294e-05 5.426362e-05 -5.877176e-05
00000000: d60b 9838 1e99 6338 b281 76b8

exp_avg_sq f4 [1, 1, 3]
3.1657152e-09 1.8243855e-09 2.1218491e-09
00000000: da8b 5931 dcbd fa30 f7cf 1131

exp_avg f4 [1, 1, 3]
-2.0306352e-05 -1.1092901e-05 -1.4732966e-05
00000000: 8f57 aab7 a61b 3ab7 9b2d 77b7

exp_avg_sq f4 [1, 1, 3]
3.033804e-10 1.0991337e-10 1.751574e-10
00000000: ffc8 a62f bab3 f12e 6d96 402f
