lightning_logs/version_4/checkpoints/epoch=9-step=800.ckpt (torch, 23690 bytes, 12 tensors)

model.dilated_convolutions.0.weight f4 [1, 1, 2]
-0.1023567 0.49605927
00000000: 64a0 d1bd 7bfb fd3e

model.dilated_convolutions.1.weight f4 [1, 1, 2]
0.42221677 -0.00036690218
00000000: cc2c d83e c75c c0b9

model.dilated_convolutions.2.weight f4 [1, 1, 2]
-0.012753041 -0.9848815
00000000: 22f2 50bc 3221 7cbf

model.dilated_convolutions.3.weight f4 [1, 1, 2]
-1.4675133 0.3515291
00000000: 7ad7 bbbf 9ffb b33e

exp_avg f4 [1, 1, 2]
-1.0313259e-05 4.9699775e-05
00000000: 1c07 2db7 ba74 5038

exp_avg_sq f4 [1, 1, 2]
9.784134e-11 1.546053e-09
00000000: c727 d72e e77c d430

exp_avg f4 [1, 1, 2]
4.2314565e-05 -4.020957e-08
00000000: eb7a 3138 e4b2 2cb3

exp_avg_sq f4 [1, 1, 2]
1.1442736e-09 8.185758e-13
00000000: 8c44 9d30 9a68 662b

exp_avg f4 [1, 1, 2]
-1.3124522e-06 -9.858489e-05
00000000: 8427 b0b5 5cbf ceb8

exp_avg_sq f4 [1, 1, 2]
7.0932323e-12 5.720942e-09
00000000: 2892 f92c f091 c431

exp_avg f4 [1, 1, 2]
-0.4193907 -0.41920885
00000000: 61ba d6be 8ba2 d6be

exp_avg_sq f4 [1, 1, 2]
0.37750125 0.3774348
00000000: d847 c13e 223f c13e
