lightning_logs/version_10/checkpoints/epoch=1-step=2800.ckpt (torch, 23690 bytes, 12 tensors)

model.dilated_convolutions.0.weight f4 [1, 1, 2]
0	0xbe6a7431	-0.22895886
1	0x3f18e714	0.597276

model.dilated_convolutions.1.weight f4 [1, 1, 2]
0	0xbd8378c3	-0.06419518
1	0xbe193540	-0.1496172

model.dilated_convolutions.2.weight f4 [1, 1, 2]
0	0x3ce596fe	0.0280261
1	0x3e93ca7b	0.28865418

model.dilated_convolutions.3.weight f4 [1, 1, 2]
0	0xbf5ea047	-0.86963314
1	0x3f205509	0.62629753

exp_avg f4 [1, 1, 2]
0	0xb7c0b444	-2.2972126e-05
1	0x387ae336	5.981625e-05

exp_avg_sq f4 [1, 1, 2]
0	0x306aa385	8.536108e-10
1	0x3192e60a	4.2753117e-09

exp_avg f4 [1, 1, 2]
0	0xb6d92016	-6.4708393e-06
1	0xb77c2b06	-1.5030388e-05

exp_avg_sq f4 [1, 1, 2]
0	0x2f2514c0	1.5014034e-10
1	0x2ff7e55c	4.5092008e-10

exp_avg f4 [1, 1, 2]
0	0x363e67a1	2.8372526e-06
1	0x37f2cf82	2.8945276e-05

exp_avg_sq f4 [1, 1, 2]
0	0x2e8c1428	6.3700434e-11
1	0x30a9b69c	1.2348269e-09

exp_avg f4 [1, 1, 2]
0	0xb8b69159	-8.7055094e-05
1	0x388387ef	6.2718864e-05

exp_avg_sq f4 [1, 1, 2]
0	0x321119a9	8.445945e-09
1	0x319fe371	4.653366e-09
