lightning_logs/version_0/checkpoints/epoch=99-step=8000.ckpt (torch, 23690 bytes, 12 tensors)

model.dilated_convolutions.0.weight f4 [1, 1, 2]
00000000: 9de5 0180 6dcb 0080
-1.74205e-40 -7.2975e-41

model.dilated_convolutions.1.weight f4 [1, 1, 2]
00000000: c284 0400 b452 0580
4.14967e-40 -4.88846e-40

model.dilated_convolutions.2.weight f4 [1, 1, 2]
00000000: 8c25 6ab5 0738 6a35
-8.722643e-07 8.7253323e-07

model.dilated_convolutions.3.weight f4 [1, 1, 2]
00000000: 8c3c 5640 8e95 5640
3.3474455 3.352878

exp_avg f4 [1, 1, 2]
00000000: 7c00 0080 2d00 0080
-1.74e-43 -6.3e-44

exp_avg_sq f4 [1, 1, 2]
00000000: 10d0 392e 5322 042e
4.2248927e-11 3.004381e-11

exp_avg f4 [1, 1, 2]
00000000: 3001 0000 5901 0080
4.26e-43 -4.83e-43

exp_avg_sq f4 [1, 1, 2]
00000000: f895 912b 95d7 822c
1.0344494e-12 3.7187566e-12

exp_avg f4 [1, 1, 2]
00000000: 98f9 fab2 acfc ebb2
-2.9217333e-08 -2.7472502e-08

exp_avg_sq f4 [1, 1, 2]
00000000: 516a 923e 516a 923e
0.28596738 0.28596738

exp_avg f4 [1, 1, 2]
00000000: aab7 56c2 aab7 56c2
-53.67936 -53.67936

exp_avg_sq f4 [1, 1, 2]
00000000: 1d68 8d45 1d68 8d45
4525.014 4525.014
