lightning_logs/version_3/checkpoints/epoch=9-step=800.ckpt (torch, 23690 bytes, 12 tensors)

model.dilated_convolutions.0.weight f4 [1, 1, 2]
-0.4035293 -0.8864831
00000000: 649b cebe 8ef0 62bf

model.dilated_convolutions.1.weight f4 [1, 1, 2]
0.78349656 0.011679021
00000000: 3b93 483f 5d59 3f3c

model.dilated_convolutions.2.weight f4 [1, 1, 2]
-0.92029226 -0.8598267
00000000: 4698 6bbf 9a1d 5cbf

model.dilated_convolutions.3.weight f4 [1, 1, 2]
0.12492942 -0.032360587
00000000: ffda ff3d 898c 04bd

exp_avg f4 [1, 1, 2]
0.0026004326 0.0009378282
00000000: 056c 2a3b 96d8 753a

exp_avg_sq f4 [1, 1, 2]
0.000102639 0.000101102116
00000000: e53f d738 c906 d438

exp_avg f4 [1, 1, 2]
-0.0009961978 0.0012234896
00000000: da92 82ba 805d a03a

exp_avg_sq f4 [1, 1, 2]
0.00015364379 0.00016081888
00000000: 711b 2139 7da1 2839

exp_avg f4 [1, 1, 2]
0.0015082431 0.0040801493
00000000: 3eb0 c53a c6b2 853b

exp_avg_sq f4 [1, 1, 2]
7.872317e-05 7.787183e-05
00000000: 2e18 a538 1f4f a338

exp_avg f4 [1, 1, 2]
-0.07002341 -0.042563785
00000000: 6f68 8fbd 5d57 2ebd

exp_avg_sq f4 [1, 1, 2]
0.048148204 0.046920534
00000000: 0d37 453d bf2f 403d
