lightning_logs/version_2/checkpoints/epoch=9-step=800.ckpt (torch, 23690 bytes, 12 tensors)

model.dilated_convolutions.0.weight f4 [1, 1, 2]
1.20814236e-20 0.12240046
00000000: 2e36 641e 18ad fa3d

model.dilated_convolutions.1.weight f4 [1, 1, 2]
0.089586966 -0.038813256
00000000: 5f79 b73d a6fa 1ebd

model.dilated_convolutions.2.weight f4 [1, 1, 2]
-0.09866808 0.035339154
00000000: 7e12 cabd cabf 103d

model.dilated_convolutions.3.weight f4 [1, 1, 2]
-3.261964e-08 0.0011294908
00000000: ac19 0cb3 6c0b 943a

exp_avg f4 [1, 1, 2]
-1.0513185e-23 0.0001260448
00000000: c55a 4b99 e52a 0439

exp_avg_sq f4 [1, 1, 2]
4.50141e-12 6.841898e-08
00000000: 1961 9e2c bbed 9233

exp_avg f4 [1, 1, 2]
9.267751e-05 -4.0697243e-05
00000000: dc5b c238 55b2 2ab8

exp_avg_sq f4 [1, 1, 2]
5.1819562e-08 2.7511778e-08
00000000: 3690 5e33 0a53 ec32

exp_avg f4 [1, 1, 2]
-0.00010192446 3.7114034e-05
00000000: 47c0 d5b8 e4aa 1b38

exp_avg_sq f4 [1, 1, 2]
5.6320978e-08 2.5851799e-08
00000000: 92e5 7133 b510 de32

exp_avg f4 [1, 1, 2]
-5.041212e-11 1.269457e-06
00000000: 00b7 5dae 3662 aa35

exp_avg_sq f4 [1, 1, 2]
9.352029e-10 5.481239e-09
00000000: 8788 8030 7d55 bc31
