lightning_logs/version_11/checkpoints/epoch=9-step=300.ckpt (torch, 23690 bytes, 12 tensors)

model.dilated_convolutions.0.weight f4 [1, 1, 2]
0	0xbf62e53e	-0.88631046
1	0xbf80c621	-1.0060464

model.dilated_convolutions.1.weight f4 [1, 1, 2]
0	0xbdfe7710	-0.12425053
1	0x3edc4bf4	0.43026698

model.dilated_convolutions.2.weight f4 [1, 1, 2]
0	0xbfc9223a	-1.571357
1	0xbeb67848	-0.35638642

model.dilated_convolutions.3.weight f4 [1, 1, 2]
0	0xbd882ae6	-0.06648807
1	0xbf136965	-0.57582694

exp_avg f4 [1, 1, 2]
0	0xb9e5dcf6	-0.00043842912
1	0xba00ef89	-0.0004918506

exp_avg_sq f4 [1, 1, 2]
0	0x3324dc07	3.838434e-08
1	0x33628e71	5.2749275e-08

exp_avg f4 [1, 1, 2]
0	0xb8b20fae	-8.490622e-05
1	0x3abc1366	0.0014349043

exp_avg_sq f4 [1, 1, 2]
0	0x32c25930	2.262513e-08
1	0x34d10546	3.893312e-07

exp_avg f4 [1, 1, 2]
0	0x39bda96c	0.00036175118
1	0x3a0a59b5	0.00052776496

exp_avg_sq f4 [1, 1, 2]
0	0x354f6ccc	7.727183e-07
1	0x3565d3ec	8.5617535e-07

exp_avg f4 [1, 1, 2]
0	0x3bc77346	0.0060867397
1	0x3bb927b0	0.005650483

exp_avg_sq f4 [1, 1, 2]
0	0x38965571	7.168472e-05
1	0x3894b1f6	7.090338e-05
