lightning_logs/version_9/checkpoints/epoch=9-step=800.ckpt (torch, 28186 bytes, 15 tensors)

model.dilated_convolutions.0.weight f4 [1, 1, 2]
0	0x3f392286	0.72318304
1	0xc00c2b83	-2.1901557

model.dilated_convolutions.1.weight f4 [1, 1, 2]
0	0x3efaec71	0.49008515
1	0x3e820966	0.25397795

model.dilated_convolutions.2.weight f4 [1, 1, 2]
0	0xbdf3bf67	-0.119017415
1	0xbf77d193	-0.9680416

model.dilated_convolutions.3.weight f4 [1, 1, 2]
0	0x3e089a05	0.13340004
1	0x3f12a6d3	0.57285804

model.dilated_convolutions.4.weight f4 [1, 1, 2]
0	0xbf8e6fa3	-1.1127819
1	0xbec32dd0	-0.3812089

exp_avg f4 [1, 1, 2]
0	0x3897dcf2	7.241395e-05
1	0xb965c1f8	-0.00021911401

exp_avg_sq f4 [1, 1, 2]
0	0x31590b82	3.1584197e-09
1	0x32ea2efa	2.7262548e-08

exp_avg f4 [1, 1, 2]
0	0x384df32f	4.910229e-05
1	0x37d5cc57	2.5486732e-05

exp_avg_sq f4 [1, 1, 2]
0	0x30cfb6ae	1.5113153e-09
1	0x2ff930bd	4.5327467e-10

exp_avg f4 [1, 1, 2]
0	0xb74904ac	-1.1981621e-05
1	0xb8cb373b	-9.690082e-05

exp_avg_sq f4 [1, 1, 2]
0	0x2f08e1ab	1.2449301e-10
1	0x31be1fa5	5.5333254e-09

exp_avg f4 [1, 1, 2]
0	0x37612cf3	1.3421511e-05
1	0x3870abbf	5.738041e-05

exp_avg_sq f4 [1, 1, 2]
0	0x2f24e398	1.499657e-10
1	0x310b56da	2.0276532e-09

exp_avg f4 [1, 1, 2]
0	0xbda65886	-0.08122353
1	0xbda6322c	-0.08115038

exp_avg_sq f4 [1, 1, 2]
0	0x3c4d28b4	0.012521911
1	0x3c4d131f	0.012516766
