lightning_logs/version_1/checkpoints/epoch=99-step=8000.ckpt (torch, 23690 bytes, 12 tensors)

model.dilated_convolutions.0.weight f4 [1, 1, 2]
-2.41675e-40 -2.3674e-41
00000000: b1a1 0280 fe41 0080

model.dilated_convolutions.1.weight f4 [1, 1, 2]
-5.84772e-40 -2.54176e-40
00000000: 1b5e 0680 8ac4 0280

model.dilated_convolutions.2.weight f4 [1, 1, 2]
-5.37e-41 -6.65415e-40
00000000: b295 0080 e83e 0780

model.dilated_convolutions.3.weight f4 [1, 1, 2]
-0.049070545 0.71096355
00000000: 32fe 48bd b501 363f

exp_avg f4 [1, 1, 2]
-2.44e-43 -2.1e-44
00000000: ae00 0080 0f00 0080

exp_avg_sq f4 [1, 1, 2]
5.6663167e-11 2.1214384e-12
00000000: 0e35 792e 7048 152c

exp_avg f4 [1, 1, 2]
-5.94e-43 -2.45e-43
00000000: a801 0080 af00 0080

exp_avg_sq f4 [1, 1, 2]
4.7620714e-14 1.2436554e-11
00000000: f276 5629 43c9 5a2d

exp_avg f4 [1, 1, 2]
-6.2e-44 -6.66e-43
00000000: 2c00 0080 db01 0080

exp_avg_sq f4 [1, 1, 2]
1.4896733e-11 1.0166611e-13
00000000: 7608 832d 86ee e429

exp_avg f4 [1, 1, 2]
-0.0090212505 -0.008261153
00000000: decd 13bc c959 07bc

exp_avg_sq f4 [1, 1, 2]
0.016873805 0.016873792
00000000: ef3a 8a3c e83a 8a3c
